…
I0112 13:53:49.455726 18791 net.cpp:294] The NetState phase (0) differed from the phase (1) specified by a rule in layer accuracy
I0112 13:53:49.455824 18791 net.cpp:51] Initializing net from parameters: 
name: "LeNet"
state {
  phase: TRAIN
  level: 0
  stage: ""
}
layer {
  name: "mnist"
  type: "Data"
  top: "data"
  top: "label"
  include {
    phase: TRAIN
  }
  transform_param {
    scale: 0.00390625
    mirror: true
    crop_size: 42
    mean_value: 129.47
  }
  data_param {
    source: "../face/train_lmdb"
    batch_size: 128
    backend: LMDB
  }
}
layer {
  name: "conv1"
  type: "Convolution"
  bottom: "data"
  top: "conv1"
  param {
    lr_mult: 1
  }
  param {
    lr_mult: 2
  }
  convolution_param {
    num_output: 32
    pad: 2
    kernel_size: 5
    stride: 1
    weight_filler {
      type: "xavier"
    }
    bias_filler {
      type: "constant"
    }
  }
}
layer {
  name: "relu1"
  type: "ReLU"
  bottom: "conv1"
  top: "conv1"
}
layer {
  name: "norm1"
  type: "LRN"
  bottom: "conv1"
  top: "norm1"
  lrn_param {
    local_size: 5
    alpha: 0.0001
    beta: 0.75
  }
}
layer {
  name: "pool1"
  type: "Pooling"
  bottom: "norm1"
  top: "pool1"
  pooling_param {
    pool: MAX
    kernel_size: 3
    stride: 2
  }
}
layer {
  name: "conv2"
  type: "Convolution"
  bottom: "pool1"
  top: "conv2"
  param {
    lr_mult: 1
  }
  param {
    lr_mult: 2
  }
  convolution_param {
    num_output: 32
    pad: 1
    kernel_size: 4
    stride: 1
    weight_filler {
      type: "xavier"
    }
    bias_filler {
      type: "constant"
    }
  }
}
layer {
  name: "relu2"
  type: "ReLU"
  bottom: "conv2"
  top: "conv2"
}
layer {
  name: "norm2"
  type: "LRN"
  bottom: "conv2"
  top: "norm2"
  lrn_param {
    local_size: 5
    alpha: 0.0001
    beta: 0.75
  }
}
layer {
  name: "pool2"
  type: "Pooling"
  bottom: "norm2"
  top: "pool2"
  pooling_param {
    pool: MAX
    kernel_size: 3
    stride: 2
  }
}
layer {
  name: "conv3"
  type: "Convolution"
  bottom: "pool2"
  top: "conv3"
  param {
    lr_mult: 1
  }
  param {
    lr_mult: 2
  }
  convolution_param {
    num_output: 64
    pad: 2
    kernel_size: 5
    stride: 1
    weight_filler {
      type: "xavier"
    }
    bias_filler {
      type: "constant"
    }
  }
}
layer {
  name: "relu3"
  type: "ReLU"
  bottom: "conv3"
  top: "conv3"
}
layer {
  name: "norm3"
  type: "LRN"
  bottom: "conv3"
  top: "norm3"
  lrn_param {
    local_size: 5
    alpha: 0.0001
    beta: 0.75
  }
}
layer {
  name: "pool3"
  type: "Pooling"
  bottom: "norm3"
  top: "pool3"
  pooling_param {
    pool: MAX
    kernel_size: 3
    stride: 2
  }
}
layer {
  name: "ip1"
  type: "InnerProduct"
  bottom: "pool3"
  top: "ip1"
  param {
    lr_mult: 1
  }
  param {
    lr_mult: 2
  }
  inner_product_param {
    num_output: 2048
    weight_filler {
      type: "xavier"
    }
    bias_filler {
      type: "constant"
    }
  }
}
layer {
  name: "relu4"
  type: "ReLU"
  bottom: "ip1"
  top: "ip1"
}
layer {
  name: "drop1"
  type: "Dropout"
  bottom: "ip1"
  top: "ip1"
  dropout_param {
    dropout_ratio: 0.4
  }
}
layer {
  name: "ip2"
  type: "InnerProduct"
  bottom: "ip1"
  top: "ip2"
  param {
    lr_mult: 1
  }
  param {
    lr_mult: 2
  }
  inner_product_param {
    num_output: 1024
    weight_filler {
      type: "xavier"
    }
    bias_filler {
      type: "constant"
    }
  }
}
layer {
  name: "relu5"
  type: "ReLU"
  bottom: "ip2"
  top: "ip2"
}
layer {
  name: "drop2"
  type: "Dropout"
  bottom: "ip2"
  top: "ip2"
  dropout_param {
    dropout_ratio: 0.4
  }
}
layer {
  name: "ip3"
  type: "InnerProduct"
  bottom: "ip2"
  top: "ip3"
  param {
    lr_mult: 1
  }
  param {
    lr_mult: 2
  }
  inner_product_param {
    num_output: 7
    weight_filler {
      type: "xavier"
    }
    bias_filler {
      type: "constant"
    }
  }
}
layer {
  name: "loss"
  type: "SoftmaxWithLoss"
  bottom: "ip3"
  bottom: "label"
  top: "loss"
}
I0112 13:53:49.455979 18791 layer_factory.hpp:77] Creating layer mnist
I0112 13:53:49.456054 18791 db_lmdb.cpp:35] Opened lmdb ../face/train_lmdb
I0112 13:53:49.456106 18791 net.cpp:84] Creating Layer mnist
I0112 13:53:49.456130 18791 net.cpp:380] mnist -> data
I0112 13:53:49.456162 18791 net.cpp:380] mnist -> label
I0112 13:53:49.456928 18791 data_layer.cpp:45] output data size: 128,1,42,42
I0112 13:53:49.458647 18791 net.cpp:122] Setting up mnist
I0112 13:53:49.458662 18791 net.cpp:129] Top shape: 128 1 42 42 (225792)
I0112 13:53:49.458665 18791 net.cpp:129] Top shape: 128 (128)
I0112 13:53:49.458667 18791 net.cpp:137] Memory required for data: 903680
I0112 13:53:49.458699 18791 layer_factory.hpp:77] Creating layer conv1
I0112 13:53:49.458714 18791 net.cpp:84] Creating Layer conv1
I0112 13:53:49.458719 18791 net.cpp:406] conv1 <- data
I0112 13:53:49.458729 18791 net.cpp:380] conv1 -> conv1
I0112 13:53:50.567463 18791 net.cpp:122] Setting up conv1
I0112 13:53:50.567484 18791 net.cpp:129] Top shape: 128 32 42 42 (7225344)
I0112 13:53:50.567487 18791 net.cpp:137] Memory required for data: 29805056
I0112 13:53:50.567499 18791 layer_factory.hpp:77] Creating layer relu1
I0112 13:53:50.567507 18791 net.cpp:84] Creating Layer relu1
I0112 13:53:50.567510 18791 net.cpp:406] relu1 <- conv1
I0112 13:53:50.567515 18791 net.cpp:367] relu1 -> conv1 (in-place)
I0112 13:53:50.567793 18791 net.cpp:122] Setting up relu1
I0112 13:53:50.567801 18791 net.cpp:129] Top shape: 128 32 42 42 (7225344)
I0112 13:53:50.567803 18791 net.cpp:137] Memory required for data: 58706432
I0112 13:53:50.567806 18791 layer_factory.hpp:77] Creating layer norm1
I0112 13:53:50.567813 18791 net.cpp:84] Creating Layer norm1
I0112 13:53:50.567816 18791 net.cpp:406] norm1 <- conv1
I0112 13:53:50.567819 18791 net.cpp:380] norm1 -> norm1
I0112 13:53:50.568102 18791 net.cpp:122] Setting up norm1
I0112 13:53:50.568109 18791 net.cpp:129] Top shape: 128 32 42 42 (7225344)
I0112 13:53:50.568112 18791 net.cpp:137] Memory required for data: 87607808
I0112 13:53:50.568114 18791 layer_factory.hpp:77] Creating layer pool1
I0112 13:53:50.568120 18791 net.cpp:84] Creating Layer pool1
I0112 13:53:50.568122 18791 net.cpp:406] pool1 <- norm1
I0112 13:53:50.568125 18791 net.cpp:380] pool1 -> pool1
I0112 13:53:50.568173 18791 net.cpp:122] Setting up pool1
I0112 13:53:50.568194 18791 net.cpp:129] Top shape: 128 32 21 21 (1806336)
I0112 13:53:50.568197 18791 net.cpp:137] Memory required for data: 94833152
I0112 13:53:50.568199 18791 layer_factory.hpp:77] Creating layer conv2
I0112 13:53:50.568224 18791 net.cpp:84] Creating Layer conv2
I0112 13:53:50.568228 18791 net.cpp:406] conv2 <- pool1
I0112 13:53:50.568248 18791 net.cpp:380] conv2 -> conv2
I0112 13:53:50.569829 18791 net.cpp:122] Setting up conv2
I0112 13:53:50.569839 18791 net.cpp:129] Top shape: 128 32 20 20 (1638400)
I0112 13:53:50.569842 18791 net.cpp:137] Memory required for data: 101386752
I0112 13:53:50.569847 18791 layer_factory.hpp:77] Creating layer relu2
I0112 13:53:50.569851 18791 net.cpp:84] Creating Layer relu2
I0112 13:53:50.569854 18791 net.cpp:406] relu2 <- conv2
I0112 13:53:50.569859 18791 net.cpp:367] relu2 -> conv2 (in-place)
I0112 13:53:50.570204 18791 net.cpp:122] Setting up relu2
I0112 13:53:50.570212 18791 net.cpp:129] Top shape: 128 32 20 20 (1638400)
I0112 13:53:50.570214 18791 net.cpp:137] Memory required for data: 107940352
I0112 13:53:50.570217 18791 layer_factory.hpp:77] Creating layer norm2
I0112 13:53:50.570221 18791 net.cpp:84] Creating Layer norm2
I0112 13:53:50.570225 18791 net.cpp:406] norm2 <- conv2
I0112 13:53:50.570245 18791 net.cpp:380] norm2 -> norm2
I0112 13:53:50.570525 18791 net.cpp:122] Setting up norm2
I0112 13:53:50.570531 18791 net.cpp:129] Top shape: 128 32 20 20 (1638400)
I0112 13:53:50.570534 18791 net.cpp:137] Memory required for data: 114493952
I0112 13:53:50.570538 18791 layer_factory.hpp:77] Creating layer pool2
I0112 13:53:50.570541 18791 net.cpp:84] Creating Layer pool2
I0112 13:53:50.570544 18791 net.cpp:406] pool2 <- norm2
I0112 13:53:50.570547 18791 net.cpp:380] pool2 -> pool2
I0112 13:53:50.570572 18791 net.cpp:122] Setting up pool2
I0112 13:53:50.570595 18791 net.cpp:129] Top shape: 128 32 10 10 (409600)
I0112 13:53:50.570598 18791 net.cpp:137] Memory required for data: 116132352
I0112 13:53:50.570600 18791 layer_factory.hpp:77] Creating layer conv3
I0112 13:53:50.570621 18791 net.cpp:84] Creating Layer conv3
I0112 13:53:50.570624 18791 net.cpp:406] conv3 <- pool2
I0112 13:53:50.570627 18791 net.cpp:380] conv3 -> conv3
I0112 13:53:50.572947 18791 net.cpp:122] Setting up conv3
I0112 13:53:50.572958 18791 net.cpp:129] Top shape: 128 64 10 10 (819200)
I0112 13:53:50.572962 18791 net.cpp:137] Memory required for data: 119409152
I0112 13:53:50.572968 18791 layer_factory.hpp:77] Creating layer relu3
I0112 13:53:50.572973 18791 net.cpp:84] Creating Layer relu3
I0112 13:53:50.572975 18791 net.cpp:406] relu3 <- conv3
I0112 13:53:50.572978 18791 net.cpp:367] relu3 -> conv3 (in-place)
I0112 13:53:50.573238 18791 net.cpp:122] Setting up relu3
I0112 13:53:50.573246 18791 net.cpp:129] Top shape: 128 64 10 10 (819200)
I0112 13:53:50.573248 18791 net.cpp:137] Memory required for data: 122685952
I0112 13:53:50.573251 18791 layer_factory.hpp:77] Creating layer norm3
I0112 13:53:50.573254 18791 net.cpp:84] Creating Layer norm3
I0112 13:53:50.573257 18791 net.cpp:406] norm3 <- conv3
I0112 13:53:50.573261 18791 net.cpp:380] norm3 -> norm3
I0112 13:53:50.573539 18791 net.cpp:122] Setting up norm3
I0112 13:53:50.573544 18791 net.cpp:129] Top shape: 128 64 10 10 (819200)
I0112 13:53:50.573547 18791 net.cpp:137] Memory required for data: 125962752
I0112 13:53:50.573549 18791 layer_factory.hpp:77] Creating layer pool3
I0112 13:53:50.573554 18791 net.cpp:84] Creating Layer pool3
I0112 13:53:50.573556 18791 net.cpp:406] pool3 <- norm3
I0112 13:53:50.573560 18791 net.cpp:380] pool3 -> pool3
I0112 13:53:50.573585 18791 net.cpp:122] Setting up pool3
I0112 13:53:50.573607 18791 net.cpp:129] Top shape: 128 64 5 5 (204800)
I0112 13:53:50.573609 18791 net.cpp:137] Memory required for data: 126781952
I0112 13:53:50.573612 18791 layer_factory.hpp:77] Creating layer ip1
I0112 13:53:50.573632 18791 net.cpp:84] Creating Layer ip1
I0112 13:53:50.573635 18791 net.cpp:406] ip1 <- pool3
I0112 13:53:50.573638 18791 net.cpp:380] ip1 -> ip1
I0112 13:53:50.588124 18791 net.cpp:122] Setting up ip1
I0112 13:53:50.588145 18791 net.cpp:129] Top shape: 128 2048 (262144)
I0112 13:53:50.588147 18791 net.cpp:137] Memory required for data: 127830528
I0112 13:53:50.588155 18791 layer_factory.hpp:77] Creating layer relu4
I0112 13:53:50.588183 18791 net.cpp:84] Creating Layer relu4
I0112 13:53:50.588187 18791 net.cpp:406] relu4 <- ip1
I0112 13:53:50.588193 18791 net.cpp:367] relu4 -> ip1 (in-place)
I0112 13:53:50.588619 18791 net.cpp:122] Setting up relu4
I0112 13:53:50.588629 18791 net.cpp:129] Top shape: 128 2048 (262144)
I0112 13:53:50.588630 18791 net.cpp:137] Memory required for data: 128879104
I0112 13:53:50.588634 18791 layer_factory.hpp:77] Creating layer drop1
I0112 13:53:50.588639 18791 net.cpp:84] Creating Layer drop1
I0112 13:53:50.588641 18791 net.cpp:406] drop1 <- ip1
I0112 13:53:50.588644 18791 net.cpp:367] drop1 -> ip1 (in-place)
I0112 13:53:50.588666 18791 net.cpp:122] Setting up drop1
I0112 13:53:50.588688 18791 net.cpp:129] Top shape: 128 2048 (262144)
I0112 13:53:50.588691 18791 net.cpp:137] Memory required for data: 129927680
I0112 13:53:50.588693 18791 layer_factory.hpp:77] Creating layer ip2
I0112 13:53:50.588713 18791 net.cpp:84] Creating Layer ip2
I0112 13:53:50.588716 18791 net.cpp:406] ip2 <- ip1
I0112 13:53:50.588738 18791 net.cpp:380] ip2 -> ip2
I0112 13:53:50.598150 18791 net.cpp:122] Setting up ip2
I0112 13:53:50.598171 18791 net.cpp:129] Top shape: 128 1024 (131072)
I0112 13:53:50.598175 18791 net.cpp:137] Memory required for data: 130451968
I0112 13:53:50.598183 18791 layer_factory.hpp:77] Creating layer relu5
I0112 13:53:50.598189 18791 net.cpp:84] Creating Layer relu5
I0112 13:53:50.598192 18791 net.cpp:406] relu5 <- ip2
I0112 13:53:50.598197 18791 net.cpp:367] relu5 -> ip2 (in-place)
I0112 13:53:50.598505 18791 net.cpp:122] Setting up relu5
I0112 13:53:50.598512 18791 net.cpp:129] Top shape: 128 1024 (131072)
I0112 13:53:50.598515 18791 net.cpp:137] Memory required for data: 130976256
I0112 13:53:50.598518 18791 layer_factory.hpp:77] Creating layer drop2
I0112 13:53:50.598522 18791 net.cpp:84] Creating Layer drop2
I0112 13:53:50.598526 18791 net.cpp:406] drop2 <- ip2
I0112 13:53:50.598528 18791 net.cpp:367] drop2 -> ip2 (in-place)
I0112 13:53:50.598573 18791 net.cpp:122] Setting up drop2
I0112 13:53:50.598578 18791 net.cpp:129] Top shape: 128 1024 (131072)
I0112 13:53:50.598582 18791 net.cpp:137] Memory required for data: 131500544
I0112 13:53:50.598584 18791 layer_factory.hpp:77] Creating layer ip3
I0112 13:53:50.598589 18791 net.cpp:84] Creating Layer ip3
I0112 13:53:50.598592 18791 net.cpp:406] ip3 <- ip2
I0112 13:53:50.598598 18791 net.cpp:380] ip3 -> ip3
I0112 13:53:50.598754 18791 net.cpp:122] Setting up ip3
I0112 13:53:50.598759 18791 net.cpp:129] Top shape: 128 7 (896)
I0112 13:53:50.598762 18791 net.cpp:137] Memory required for data: 131504128
I0112 13:53:50.598765 18791 layer_factory.hpp:77] Creating layer loss
I0112 13:53:50.598788 18791 net.cpp:84] Creating Layer loss
I0112 13:53:50.598791 18791 net.cpp:406] loss <- ip3
I0112 13:53:50.598794 18791 net.cpp:406] loss <- label
I0112 13:53:50.598800 18791 net.cpp:380] loss -> loss
I0112 13:53:50.598807 18791 layer_factory.hpp:77] Creating layer loss
…
I0112 13:53:50.599431 18791 solver.cpp:190] Creating test net (#0) specified by net file: lenet_train_val.prototxt
I0112 13:53:50.599452 18791 net.cpp:294] The NetState phase (1) differed from the phase (0) specified by a rule in layer mnist
I0112 13:53:50.599541 18791 net.cpp:51] Initializing net from parameters: 
name: "LeNet"
state {
  phase: TEST
}
layer {
  name: "mnist"
  type: "Data"
  top: "data"
  top: "label"
  include {
    phase: TEST
  }
  transform_param {
    scale: 0.00390625
    mirror: true
    crop_size: 42
    mean_value: 129.47
  }
  data_param {
    source: "../face/val_lmdb"
    batch_size: 64
    backend: LMDB
  }
}
layer {
  name: "conv1"
  type: "Convolution"
  bottom: "data"
  top: "conv1"
  param {
    lr_mult: 1
  }
  param {
    lr_mult: 2
  }
  convolution_param {
    num_output: 32
    pad: 2
    kernel_size: 5
    stride: 1
    weight_filler {
      type: "xavier"
    }
    bias_filler {
      type: "constant"
    }
  }
}
layer {
  name: "relu1"
  type: "ReLU"
  bottom: "conv1"
  top: "conv1"
}
layer {
  name: "norm1"
  type: "LRN"
  bottom: "conv1"
  top: "norm1"
  lrn_param {
    local_size: 5
    alpha: 0.0001
    beta: 0.75
  }
}
layer {
  name: "pool1"
  type: "Pooling"
  bottom: "norm1"
  top: "pool1"
  pooling_param {
    pool: MAX
    kernel_size: 3
    stride: 2
  }
}
layer {
  name: "conv2"
  type: "Convolution"
  bottom: "pool1"
  top: "conv2"
  param {
    lr_mult: 1
  }
  param {
    lr_mult: 2
  }
  convolution_param {
    num_output: 32
    pad: 1
    kernel_size: 4
    stride: 1
    weight_filler {
      type: "xavier"
    }
    bias_filler {
      type: "constant"
    }
  }
}
layer {
  name: "relu2"
  type: "ReLU"
  bottom: "conv2"
  top: "conv2"
}
layer {
  name: "norm2"
  type: "LRN"
  bottom: "conv2"
  top: "norm2"
  lrn_param {
    local_size: 5
    alpha: 0.0001
    beta: 0.75
  }
}
layer {
  name: "pool2"
  type: "Pooling"
  bottom: "norm2"
  top: "pool2"
  pooling_param {
    pool: MAX
    kernel_size: 3
    stride: 2
  }
}
layer {
  name: "conv3"
  type: "Convolution"
  bottom: "pool2"
  top: "conv3"
  param {
    lr_mult: 1
  }
  param {
    lr_mult: 2
  }
  convolution_param {
    num_output: 64
    pad: 2
    kernel_size: 5
    stride: 1
    weight_filler {
      type: "xavier"
    }
    bias_filler {
      type: "constant"
    }
  }
}
layer {
  name: "relu3"
  type: "ReLU"
  bottom: "conv3"
  top: "conv3"
}
layer {
  name: "norm3"
  type: "LRN"
  bottom: "conv3"
  top: "norm3"
  lrn_param {
    local_size: 5
    alpha: 0.0001
    beta: 0.75
  }
}
layer {
  name: "pool3"
  type: "Pooling"
  bottom: "norm3"
  top: "pool3"
  pooling_param {
    pool: MAX
    kernel_size: 3
    stride: 2
  }
}
layer {
  name: "ip1"
  type: "InnerProduct"
  bottom: "pool3"
  top: "ip1"
  param {
    lr_mult: 1
  }
  param {
    lr_mult: 2
  }
  inner_product_param {
    num_output: 2048
    weight_filler {
      type: "xavier"
    }
    bias_filler {
      type: "constant"
    }
  }
}
layer {
  name: "relu4"
  type: "ReLU"
  bottom: "ip1"
  top: "ip1"
}
layer {
  name: "drop1"
  type: "Dropout"
  bottom: "ip1"
  top: "ip1"
  dropout_param {
    dropout_ratio: 0.4
  }
}
layer {
  name: "ip2"
  type: "InnerProduct"
  bottom: "ip1"
  top: "ip2"
  param {
    lr_mult: 1
  }
  param {
    lr_mult: 2
  }
  inner_product_param {
    num_output: 1024
    weight_filler {
      type: "xavier"
    }
    bias_filler {
      type: "constant"
    }
  }
}
layer {
  name: "relu5"
  type: "ReLU"
  bottom: "ip2"
  top: "ip2"
}
layer {
  name: "drop2"
  type: "Dropout"
  bottom: "ip2"
  top: "ip2"
  dropout_param {
    dropout_ratio: 0.4
  }
}
layer {
  name: "ip3"
  type: "InnerProduct"
  bottom: "ip2"
  top: "ip3"
  param {
    lr_mult: 1
  }
  param {
    lr_mult: 2
  }
  inner_product_param {
    num_output: 7
    weight_filler {
      type: "xavier"
    }
    bias_filler {
      type: "constant"
    }
  }
}
layer {
  name: "accuracy"
  type: "Accuracy"
  bottom: "ip3"
  bottom: "label"
  top: "accuracy"
  include {
    phase: TEST
  }
}
layer {
  name: "loss"
  type: "SoftmaxWithLoss"
  bottom: "ip3"
  bottom: "label"
  top: "loss"
}
I0112 13:53:50.599684 18791 layer_factory.hpp:77] Creating layer mnist
I0112 13:53:50.599800 18791 db_lmdb.cpp:35] Opened lmdb ../face/val_lmdb
I0112 13:53:50.599812 18791 net.cpp:84] Creating Layer mnist
I0112 13:53:50.599843 18791 net.cpp:380] mnist -> data
I0112 13:53:50.599850 18791 net.cpp:380] mnist -> label
I0112 13:53:50.599930 18791 data_layer.cpp:45] output data size: 64,1,42,42
I0112 13:53:50.601194 18791 net.cpp:122] Setting up mnist
I0112 13:53:50.601207 18791 net.cpp:129] Top shape: 64 1 42 42 (112896)
I0112 13:53:50.601212 18791 net.cpp:129] Top shape: 64 (64)
I0112 13:53:50.601214 18791 net.cpp:137] Memory required for data: 451840
I0112 13:53:50.601217 18791 layer_factory.hpp:77] Creating layer label_mnist_1_split
I0112 13:53:50.601224 18791 net.cpp:84] Creating Layer label_mnist_1_split
I0112 13:53:50.601227 18791 net.cpp:406] label_mnist_1_split <- label
I0112 13:53:50.601231 18791 net.cpp:380] label_mnist_1_split -> label_mnist_1_split_0
I0112 13:53:50.601238 18791 net.cpp:380] label_mnist_1_split -> label_mnist_1_split_1
I0112 13:53:50.601272 18791 net.cpp:122] Setting up label_mnist_1_split
I0112 13:53:50.601277 18791 net.cpp:129] Top shape: 64 (64)
I0112 13:53:50.601280 18791 net.cpp:129] Top shape: 64 (64)
I0112 13:53:50.601287 18791 net.cpp:137] Memory required for data: 452352
I0112 13:53:50.601291 18791 layer_factory.hpp:77] Creating layer conv1
I0112 13:53:50.601300 18791 net.cpp:84] Creating Layer conv1
I0112 13:53:50.601305 18791 net.cpp:406] conv1 <- data
I0112 13:53:50.601310 18791 net.cpp:380] conv1 -> conv1
I0112 13:53:50.602779 18791 net.cpp:122] Setting up conv1
I0112 13:53:50.602789 18791 net.cpp:129] Top shape: 64 32 42 42 (3612672)
I0112 13:53:50.602793 18791 net.cpp:137] Memory required for data: 14903040
I0112 13:53:50.602800 18791 layer_factory.hpp:77] Creating layer relu1
I0112 13:53:50.602807 18791 net.cpp:84] Creating Layer relu1
I0112 13:53:50.602809 18791 net.cpp:406] relu1 <- conv1
I0112 13:53:50.602814 18791 net.cpp:367] relu1 -> conv1 (in-place)
I0112 13:53:50.603148 18791 net.cpp:122] Setting up relu1
I0112 13:53:50.603158 18791 net.cpp:129] Top shape: 64 32 42 42 (3612672)
I0112 13:53:50.603161 18791 net.cpp:137] Memory required for data: 29353728
I0112 13:53:50.603165 18791 layer_factory.hpp:77] Creating layer norm1
I0112 13:53:50.603173 18791 net.cpp:84] Creating Layer norm1
I0112 13:53:50.603176 18791 net.cpp:406] norm1 <- conv1
I0112 13:53:50.603181 18791 net.cpp:380] norm1 -> norm1
I0112 13:53:50.603719 18791 net.cpp:122] Setting up norm1
I0112 13:53:50.603729 18791 net.cpp:129] Top shape: 64 32 42 42 (3612672)
I0112 13:53:50.603732 18791 net.cpp:137] Memory required for data: 43804416
I0112 13:53:50.603735 18791 layer_factory.hpp:77] Creating layer pool1
I0112 13:53:50.603741 18791 net.cpp:84] Creating Layer pool1
I0112 13:53:50.603746 18791 net.cpp:406] pool1 <- norm1
I0112 13:53:50.603751 18791 net.cpp:380] pool1 -> pool1
I0112 13:53:50.603783 18791 net.cpp:122] Setting up pool1
I0112 13:53:50.603788 18791 net.cpp:129] Top shape: 64 32 21 21 (903168)
I0112 13:53:50.603791 18791 net.cpp:137] Memory required for data: 47417088
I0112 13:53:50.603794 18791 layer_factory.hpp:77] Creating layer conv2
I0112 13:53:50.603802 18791 net.cpp:84] Creating Layer conv2
I0112 13:53:50.603806 18791 net.cpp:406] conv2 <- pool1
I0112 13:53:50.603809 18791 net.cpp:380] conv2 -> conv2
I0112 13:53:50.606020 18791 net.cpp:122] Setting up conv2
I0112 13:53:50.606031 18791 net.cpp:129] Top shape: 64 32 20 20 (819200)
I0112 13:53:50.606034 18791 net.cpp:137] Memory required for data: 50693888
I0112 13:53:50.606040 18791 layer_factory.hpp:77] Creating layer relu2
I0112 13:53:50.606045 18791 net.cpp:84] Creating Layer relu2
I0112 13:53:50.606048 18791 net.cpp:406] relu2 <- conv2
I0112 13:53:50.606053 18791 net.cpp:367] relu2 -> conv2 (in-place)
I0112 13:53:50.606372 18791 net.cpp:122] Setting up relu2
I0112 13:53:50.606380 18791 net.cpp:129] Top shape: 64 32 20 20 (819200)
I0112 13:53:50.606382 18791 net.cpp:137] Memory required for data: 53970688
I0112 13:53:50.606385 18791 layer_factory.hpp:77] Creating layer norm2
I0112 13:53:50.606391 18791 net.cpp:84] Creating Layer norm2
I0112 13:53:50.606395 18791 net.cpp:406] norm2 <- conv2
I0112 13:53:50.606397 18791 net.cpp:380] norm2 -> norm2
I0112 13:53:50.606755 18791 net.cpp:122] Setting up norm2
I0112 13:53:50.606763 18791 net.cpp:129] Top shape: 64 32 20 20 (819200)
I0112 13:53:50.606765 18791 net.cpp:137] Memory required for data: 57247488
I0112 13:53:50.606768 18791 layer_factory.hpp:77] Creating layer pool2
I0112 13:53:50.606773 18791 net.cpp:84] Creating Layer pool2
I0112 13:53:50.606776 18791 net.cpp:406] pool2 <- norm2
I0112 13:53:50.606781 18791 net.cpp:380] pool2 -> pool2
I0112 13:53:50.606827 18791 net.cpp:122] Setting up pool2
I0112 13:53:50.606832 18791 net.cpp:129] Top shape: 64 32 10 10 (204800)
I0112 13:53:50.606835 18791 net.cpp:137] Memory required for data: 58066688
I0112 13:53:50.606851 18791 layer_factory.hpp:77] Creating layer conv3
I0112 13:53:50.606858 18791 net.cpp:84] Creating Layer conv3
I0112 13:53:50.606880 18791 net.cpp:406] conv3 <- pool2
I0112 13:53:50.606886 18791 net.cpp:380] conv3 -> conv3
I0112 13:53:50.608243 18791 net.cpp:122] Setting up conv3
I0112 13:53:50.608253 18791 net.cpp:129] Top shape: 64 64 10 10 (409600)
I0112 13:53:50.608255 18791 net.cpp:137] Memory required for data: 59705088
I0112 13:53:50.608260 18791 layer_factory.hpp:77] Creating layer relu3
I0112 13:53:50.608265 18791 net.cpp:84] Creating Layer relu3
I0112 13:53:50.608268 18791 net.cpp:406] relu3 <- conv3
I0112 13:53:50.608271 18791 net.cpp:367] relu3 -> conv3 (in-place)
I0112 13:53:50.608568 18791 net.cpp:122] Setting up relu3
I0112 13:53:50.608575 18791 net.cpp:129] Top shape: 64 64 10 10 (409600)
I0112 13:53:50.608597 18791 net.cpp:137] Memory required for data: 61343488
I0112 13:53:50.608599 18791 layer_factory.hpp:77] Creating layer norm3
I0112 13:53:50.608604 18791 net.cpp:84] Creating Layer norm3
I0112 13:53:50.608608 18791 net.cpp:406] norm3 <- conv3
I0112 13:53:50.608613 18791 net.cpp:380] norm3 -> norm3
I0112 13:53:50.609024 18791 net.cpp:122] Setting up norm3
I0112 13:53:50.609031 18791 net.cpp:129] Top shape: 64 64 10 10 (409600)
I0112 13:53:50.609053 18791 net.cpp:137] Memory required for data: 62981888
I0112 13:53:50.609056 18791 layer_factory.hpp:77] Creating layer pool3
I0112 13:53:50.609062 18791 net.cpp:84] Creating Layer pool3
I0112 13:53:50.609066 18791 net.cpp:406] pool3 <- norm3
I0112 13:53:50.609069 18791 net.cpp:380] pool3 -> pool3
I0112 13:53:50.609098 18791 net.cpp:122] Setting up pool3
I0112 13:53:50.609103 18791 net.cpp:129] Top shape: 64 64 5 5 (102400)
I0112 13:53:50.609107 18791 net.cpp:137] Memory required for data: 63391488
I0112 13:53:50.609108 18791 layer_factory.hpp:77] Creating layer ip1
I0112 13:53:50.609113 18791 net.cpp:84] Creating Layer ip1
I0112 13:53:50.609117 18791 net.cpp:406] ip1 <- pool3
I0112 13:53:50.609120 18791 net.cpp:380] ip1 -> ip1
I0112 13:53:50.623543 18791 net.cpp:122] Setting up ip1
I0112 13:53:50.623566 18791 net.cpp:129] Top shape: 64 2048 (131072)
I0112 13:53:50.623569 18791 net.cpp:137] Memory required for data: 63915776
I0112 13:53:50.623576 18791 layer_factory.hpp:77] Creating layer relu4
I0112 13:53:50.623584 18791 net.cpp:84] Creating Layer relu4
I0112 13:53:50.623586 18791 net.cpp:406] relu4 <- ip1
I0112 13:53:50.623591 18791 net.cpp:367] relu4 -> ip1 (in-place)
I0112 13:53:50.623942 18791 net.cpp:122] Setting up relu4
I0112 13:53:50.623950 18791 net.cpp:129] Top shape: 64 2048 (131072)
I0112 13:53:50.623952 18791 net.cpp:137] Memory required for data: 64440064
I0112 13:53:50.623955 18791 layer_factory.hpp:77] Creating layer drop1
I0112 13:53:50.623962 18791 net.cpp:84] Creating Layer drop1
I0112 13:53:50.623966 18791 net.cpp:406] drop1 <- ip1
I0112 13:53:50.623970 18791 net.cpp:367] drop1 -> ip1 (in-place)
I0112 13:53:50.623989 18791 net.cpp:122] Setting up drop1
I0112 13:53:50.623994 18791 net.cpp:129] Top shape: 64 2048 (131072)
I0112 13:53:50.623996 18791 net.cpp:137] Memory required for data: 64964352
I0112 13:53:50.623999 18791 layer_factory.hpp:77] Creating layer ip2
I0112 13:53:50.624004 18791 net.cpp:84] Creating Layer ip2
I0112 13:53:50.624006 18791 net.cpp:406] ip2 <- ip1
I0112 13:53:50.624011 18791 net.cpp:380] ip2 -> ip2
I0112 13:53:50.633708 18791 net.cpp:122] Setting up ip2
I0112 13:53:50.633724 18791 net.cpp:129] Top shape: 64 1024 (65536)
I0112 13:53:50.633728 18791 net.cpp:137] Memory required for data: 65226496
I0112 13:53:50.633736 18791 layer_factory.hpp:77] Creating layer relu5
I0112 13:53:50.633743 18791 net.cpp:84] Creating Layer relu5
I0112 13:53:50.633745 18791 net.cpp:406] relu5 <- ip2
I0112 13:53:50.633750 18791 net.cpp:367] relu5 -> ip2 (in-place)
I0112 13:53:50.634089 18791 net.cpp:122] Setting up relu5
I0112 13:53:50.634097 18791 net.cpp:129] Top shape: 64 1024 (65536)
I0112 13:53:50.634099 18791 net.cpp:137] Memory required for data: 65488640
I0112 13:53:50.634102 18791 layer_factory.hpp:77] Creating layer drop2
I0112 13:53:50.634109 18791 net.cpp:84] Creating Layer drop2
I0112 13:53:50.634111 18791 net.cpp:406] drop2 <- ip2
I0112 13:53:50.634115 18791 net.cpp:367] drop2 -> ip2 (in-place)
I0112 13:53:50.634135 18791 net.cpp:122] Setting up drop2
I0112 13:53:50.634140 18791 net.cpp:129] Top shape: 64 1024 (65536)
I0112 13:53:50.634142 18791 net.cpp:137] Memory required for data: 65750784
I0112 13:53:50.634145 18791 layer_factory.hpp:77] Creating layer ip3
I0112 13:53:50.634150 18791 net.cpp:84] Creating Layer ip3
I0112 13:53:50.634153 18791 net.cpp:406] ip3 <- ip2
I0112 13:53:50.634158 18791 net.cpp:380] ip3 -> ip3
I0112 13:53:50.634270 18791 net.cpp:122] Setting up ip3
I0112 13:53:50.634274 18791 net.cpp:129] Top shape: 64 7 (448)
I0112 13:53:50.634277 18791 net.cpp:137] Memory required for data: 65752576
I0112 13:53:50.634281 18791 layer_factory.hpp:77] Creating layer ip3_ip3_0_split
I0112 13:53:50.634285 18791 net.cpp:84] Creating Layer ip3_ip3_0_split
I0112 13:53:50.634287 18791 net.cpp:406] ip3_ip3_0_split <- ip3
I0112 13:53:50.634291 18791 net.cpp:380] ip3_ip3_0_split -> ip3_ip3_0_split_0
I0112 13:53:50.634299 18791 net.cpp:380] ip3_ip3_0_split -> ip3_ip3_0_split_1
I0112 13:53:50.634325 18791 net.cpp:122] Setting up ip3_ip3_0_split
I0112 13:53:50.634330 18791 net.cpp:129] Top shape: 64 7 (448)
I0112 13:53:50.634332 18791 net.cpp:129] Top shape: 64 7 (448)
I0112 13:53:50.634335 18791 net.cpp:137] Memory required for data: 65756160
I0112 13:53:50.634337 18791 layer_factory.hpp:77] Creating layer accuracy
I0112 13:53:50.634342 18791 net.cpp:84] Creating Layer accuracy
I0112 13:53:50.634346 18791 net.cpp:406] accuracy <- ip3_ip3_0_split_0
I0112 13:53:50.634348 18791 net.cpp:406] accuracy <- label_mnist_1_split_0
I0112 13:53:50.634353 18791 net.cpp:380] accuracy -> accuracy
…
