name: "LeNet"
layer {
  name: "mnist"
  type: "Data"
  top: "data"
  top: "label"
  include {
    phase: TRAIN
  }
  transform_param {
    mean_value: 129.47
    scale: 0.00390625
    mirror: true
    crop_size: 42
  }
  data_param {
    source: "../face/train_lmdb"
    batch_size: 128
    backend: LMDB
  }
}
layer {
  name: "mnist"
  type: "Data"
  top: "data"
  top: "label"
  include {
    phase: TEST
  }
  transform_param {
    mirror: true
    crop_size: 42

    mean_value: 129.47
    scale: 0.00390625
  }
  data_param {
    source: "../face/test_lmdb"
    batch_size: 64
    backend: LMDB
  }
}
layer {
  name: "conv1"
  type: "Convolution"
  bottom: "data"
  top: "conv1"
  param {
    lr_mult: 1
  }
  param {
    lr_mult: 2
  }
  convolution_param {
    num_output: 32
    kernel_size: 5
    stride: 1
    pad: 2
    weight_filler {
      type: "xavier"
    }
    bias_filler {
      type: "constant"
    }
  }
}
layer{
    name: "relu1"
    type: "ReLU"
    bottom: "conv1"
    top: "conv1"
}
layer{
    name: "norm1"
    type: "LRN"
    bottom: "conv1"
    top: "norm1"
    lrn_param{
    local_size: 5
    alpha: 0.0001
    beta: 0.75
    }
}
layer {
  name: "pool1"
  type: "Pooling"
  bottom: "norm1"
  top: "pool1"
  pooling_param {
    pool: MAX
    kernel_size: 3
    stride: 2
  }
}
layer {
  name: "conv2"
  type: "Convolution"
  bottom: "pool1"
  top: "conv2"
  param {
    lr_mult: 1
  }
  param {
    lr_mult: 2
  }
  convolution_param {
    num_output: 32
    kernel_size: 4
    stride: 1
    pad: 1
    weight_filler {
      type: "xavier"
    }
    bias_filler {
      type: "constant"
    }
  }
}
layer{
    name: "relu2"
    type: "ReLU"
    bottom: "conv2"
    top: "conv2"
}
layer{
    name: "norm2"
    type: "LRN"
    bottom: "conv2"
    top: "norm2"
    lrn_param{	
	local_size: 5
	alpha: 0.0001
	beta: 0.75
    }
}
layer {
  name: "pool2"
  type: "Pooling"
  bottom: "norm2"
  top: "pool2"
  pooling_param {
    pool: MAX
    kernel_size: 3
    stride: 2
  }
}
layer {
  name: "conv3"
  type: "Convolution"
  bottom: "pool2"
  top: "conv3"
  param {
    lr_mult: 1
  }
  param {
    lr_mult: 2
  }
  convolution_param {
    num_output: 64	
    kernel_size: 5
    stride: 1
    pad: 2
    weight_filler {
      type: "xavier"
    }
    bias_filler {
      type: "constant"
    }
  }
}
layer{
    name: "relu3"
    type: "ReLU"
    bottom: "conv3"
    top: "conv3"
}

layer{
    name: "norm3"
    type: "LRN"
    bottom: "conv3"
    top: "norm3"
    lrn_param{
	local_size: 5
	alpha: 0.0001
	beta: 0.75
    }
}
layer {
  name: "pool3"
  type: "Pooling"
  bottom: "norm3"
  top: "pool3"
  pooling_param {
    pool: MAX
    kernel_size: 3
    stride: 2
  }
}

layer {
  name: "ip1"
  type: "InnerProduct"
  bottom: "pool3"
  top: "ip1"
  param {
    lr_mult: 1
  }
  param {
    lr_mult: 2
  }
  inner_product_param {
    num_output: 2048
    weight_filler {
      type: "xavier"
    }
    bias_filler {
      type: "constant"
    }
  }
}
layer{
	name: "relu4"
	type: "ReLU"
	bottom: "ip1"
	top: "ip1"
}
layer {
    name: "drop1"
    type: "Dropout"
    bottom: "ip1"
    top: "ip1"
    dropout_param {
	dropout_ratio: 0.4
    }
}
layer {
  name: "ip2"
  type: "InnerProduct"
  bottom: "ip1"
  top: "ip2"
  param {
    lr_mult: 1
  }
  param {
    lr_mult: 2
  }
  inner_product_param {
    num_output: 1024
    weight_filler {
      type: "xavier"
    }
    bias_filler {
      type: "constant"
    }
  }
}
layer{
	name: "relu5"
	type: "ReLU"
	bottom: "ip2"
	top: "ip2"
}
layer {
    name: "drop2"
    type: "Dropout"
    bottom: "ip2"
    top: "ip2"
    dropout_param {
	dropout_ratio: 0.4
    }
}

layer {
  name: "ip3"
  type: "InnerProduct"
  bottom: "ip2"
  top: "ip3"
  param {
    lr_mult: 1
  }
  param {
    lr_mult: 2
  }
  inner_product_param {
    num_output: 7
    weight_filler {
      type: "xavier"
    }
    bias_filler {
      type: "constant"
    }
  }
}

layer {
  name: "accuracy"
  type: "Accuracy"
  bottom: "ip3"
  bottom: "label"
  top: "accuracy"
  include {
    phase: TEST
  }
}
layer {
  name: "loss"
  type: "SoftmaxWithLoss"
  bottom: "ip3"
  bottom: "label"
  top: "loss"
}
